data.pth (torch, 11391 bytes, 6 tensors)

layer_1.weight f4 [10, 121]
00000000: f43e 693d 61f1 d8bd a8c8 1bbe b9f4 6dbe
00000010: 1a63 93bd 0f17 18be 436a 34bc fbec 0dbf
00000020: 851f 653e c582 303f 0e22 f8be b548 debd
00000030: 8710 d3bf 5fb7 15bf 1e08 0abf 58f2 87be
00000040: 6587 3b3e 7165 3cbf 05a9 e43f 04d9 cb3e
00000050: 2cf3 33bf bb8a 823d 7dcc 5d3e 7c89 b43f
00000060: f7b3 903d 9dbf 65bf 2618 473f 24b3 723f
00000070: 80a2 833b 03f5 033f 0954 bc3f 8f7d fcbe
00000080: d63f a13f ebc1 133f a452 ef3d 655b 08bf
00000090: c04a 053f a0dd c73e 8150 d63f 79c5 79bf
000000a0: 4c90 da3f 7eed 223f d0f5 443f 80ea 35bf
000000b0: 75fd fb3d f8a1 523f 28d2 a4bf 5ef6 973e
000000c0: a92e a63d 66bc 373d 0f9d 053f 35ca 323e
000000d0: 24c9 a13f f3b2 17be 8cd7 69bf bb88 5dbf
000000e0: 3b50 2e3f c81c a53f 23a9 023f 5e0d a53f
000000f0: 11f4 893f 0fa0 4a3f 192a 703e bb7b e5be
00000100: ad1e 4d3e 6138 a33e df74 4bbf 0b34 86bf
00000110: de56 d8be 5021 b4bd b722 533e cc93 ae3e
00000120: 50e8 f13d e257 f1bd 2661 713e d995 e9be
00000130: 553a 07bf c6f6 c1be 115b 123f b571 d5bd
00000140: a918 47bf 134d c4bf f0ca 003e 8cac f53e
00000150: 91a6 13bf e288 02be c4cc 003f 6869 35bf
00000160: 0387 2dbe c8a9 123f 21c1 b23f 2e38 f23e
00000170: b059 1b3e 8414 023d 0403 8b3e 826a edbe
00000180: 4b94 fcbe d982 8fbf 0aea 763e 40b2 663e
00000190: 149f adbd 35a5 d1bf 669e 9f3e 5965 71bf
000001a0: 188e 2cbf 00e0 fa3e aad2 e43e d6e1 833d
000001b0: fd82 b63e dd98 223e 28c4 3cbe 0db6 cb3e
000001c0: 22b7 fabd 83c6 033f 536f 61bf d692 0cbd
000001d0: f3d4 9f3f 31ab 863e 9938 9c3e 9117 10bf
000001e0: ed47 f13e 8ed6 a13e 64d3 203f a452 5b3f
000001f0: 5305 cc3f 7a7a 673f ff08 d53e ec85 253f
00000200: 7e99 4f3f 880c 723f ce87 423e 57a1 cf3e
00000210: a4e5 573f 627c ca3f b36e b33e 4bd1 793f
00000220: 3df4 de3e 4811 f53b 0220 9b3f efd0 88bf
00000230: df73 87bf cdfc 623f fe07 f83e e31d a8bf
00000240: 4d30 bf3f 5242 823f 1f0d 2f3f 3471 cb3f
00000250: 6e12 6abf 2ceb fc3e 4c72 523f 8d12 613f
00000260: d0a4 cf3e 40c5 ecbe 3c7c c83e 90e4 c53e
00000270: c193 833f f493 36bf 5209 55be 6151 d1bf
00000280: 1bd4 a83f b701 c4bf ba5d cebe be66 883f
00000290: 6ca7 1e3f a590 113f a41a 2e3e 550b 613f
000002a0: 3f91 003f 07af 303e c2bd f13d dd03 27bf
000002b0: ccc6 563f e9ab 1a3f 2ea5 113e 3e75 95bf
000002c0: 2150 20bf 07bc 23be 6d4e 1b3f 1689 d3be
000002d0: 5702 0a3f a196 ff3e 8751 db3e a34e 993d
000002e0: b1e5 f53e 5e03 f03e ef53 05bf 7ea3 033f
000002f0: bcf1 7abe 464d 873e 0ad4 df3d 0f8c ab3e
00000300: 4e41 9abe 944c b63e 2c7b a93e 14d4 6f3e
00000310: 00be 58bd efcc 373f c703 463f 3877 033f
00000320: d18e 203f 3d98 1d3f 9411 223f 7ea2 e23e
00000330: a487 743e d57a c43e 6a6f 883f 11e0 c3be
00000340: 66c9 4b3f 6937 843f e532 203f 842e 92bf
00000350: d28c 1e3e 9557 d73e d613 fc3e 600c da3d
00000360: ad78 51bf 0e82 a43f 7d6b f13e af22 2ebf
00000370: bfa8 5dbf 1f22 44bf f5e6 fb3f e9bd 5ebe
00000380: 8d20 d43f 00ae 903f 4d8b ab3f 663d 163e
00000390: 545d 3a3d a71f 19be 24e3 bc3f 5f51 21be
000003a0: 72df 80bf b3b3 ee3e d1b1 003f 7b34 f1be
000003b0: b29c d03e e6e2 aabf 3a9f c83d 0afa c43e
000003c0: 12ad f1be b5ca 053f 07a8 293e 6479 673f
000003d0: b39f 4f3f 7269 bc3e 8e93 493f ed75 d03e
000003e0: 1799 353e adc4 483f 497c 2ebd 6797 8dbe
000003f0: 8091 2f3d b8e4 e83e 6b77 773f d654 af3e
0.056944802 -0.105929144 -0.15213263 -0.23237886 -0.071966365 -0.14852546 -0.011011663 -0.5543973
0.22375305 0.6894954 -0.48463482 -0.108537115 -1.6489419 -0.5848293 -0.53918636 -0.2655208
0.18313368 -0.7359229 1.7864081 0.39814007 -0.70292926 0.06374117 0.21660037 1.4104457
0.070655756 -0.89745504 0.7777122 0.94804597 0.0040171742 0.51545733 1.4713145 -0.49314544
1.2597606 0.5771777 0.11685684 -0.53264457 0.52067184 0.39036274 1.6743318 -0.97566944
1.7075286 0.63643634 0.7693758 -0.71060944 0.123042025 0.82278395 -1.2876635 0.2968015
0.081143685 0.044857405 0.5219278 0.17459948 1.2639508 -0.14814357 -0.91344523 -0.8653676
0.6809117 1.2899408 0.5103933 1.2894704 1.0777608 0.7915048 0.23453559 -0.4482096
0.20031233 0.3187895 -0.79475206 -1.0484632 -0.42253774 -0.08795416 0.20618711 0.34097135
0.11811888 -0.117843404 0.23572215 -0.45622137 -0.5282338 -0.37883586 0.57170206 -0.104220785
-0.77772003 -1.5336021 0.12577415 0.47983205 -0.57676035 -0.12747529 0.5031245 -0.7086396
-0.16946034 0.57290316 1.3965188 0.47308487 0.15170932 0.031757846 0.27150738 -0.46370322
-0.4933189 -1.1211807 0.24112716 0.22528934 -0.08477607 -1.6378542 0.31175536 -0.9429527
-0.6740432 0.48999023 0.44691974 0.06439559 0.3564681 0.15878625 -0.18434203 0.3978733
-0.12241961 0.5147478 -0.8806049 -0.03431972 1.2486862 0.26302484 0.3051193 -0.5628596
0.47125188 0.31609005 0.62822556 0.85672975 1.5939125 0.9042126 0.41608426 0.64657474
0.81093585 0.9455037 0.18997118 0.4055278 0.8433478 1.5819209 0.35045394 0.9758498
0.43545714 0.0074788667 1.2119143 -1.0688761 -1.0582236 0.88666993 0.48443598 -1.3134121
1.4936615 1.0176489 0.68379396 1.5893922 -0.9143437 0.49398172 0.82205653 0.8791893
0.4055543 -0.4624424 0.39157283 0.38650942 1.0279466 -0.7131951 -0.20804337 -1.635296
1.318973 -1.5313023 -0.40305883 1.0656354 0.61974216 0.56861335 0.1700235 0.87907916
0.5022163 0.17254268 0.118037716 -0.6524027 0.8389709 0.60418564 0.14223167 -1.1676404
-0.62622267 -0.15989695 0.60666543 -0.41315526 0.5390982 0.49919608 0.42835638 0.07485702
0.48026803 0.4687757 -0.520812 0.51421344 -0.24506277 0.26426142 0.10929115 0.33505294
-0.3012795 0.356053 0.33101785 0.23420745 -0.052915573 0.7179708 0.77349514 0.5135379
0.6271792 0.6156042 0.6330807 0.44264597 0.23879868 0.38374963 1.0659001 -0.38256887
0.79604185 1.032941 0.6257766 -1.1420445 0.15483406 0.42059007 0.49233884 0.106468916
-0.8182476 1.285219 0.4715232 -0.6802167 -0.8658561 -0.76614565 1.9679857 -0.21752132
1.6572434 1.13031 1.3401886 0.14671859 0.04549916 -0.1495348 1.4756818 -0.15753697
-1.006819 0.46621475 0.50271326 -0.47110352 0.4074455 -1.3350494 0.09795995 0.38472015
-0.47202355 0.5226243 0.16568004 0.904196 0.81103057 0.36799198 0.78740776 0.4071497
0.1773418 0.78425103 -0.042598996 -0.27654573 0.04286337 0.45487 0.9666659 0.34244412

layer_1.bias f4 [10]
00000000: 8461 aa3f 5a59 d83f cdec bf3e 66ea 203f
00000010: 39b2 7e3f d8d6 6c3f 18ce 8a3f 5920 1a3f
00000020: b2b9 8abd 75d5 2b3f
1.331101 1.6902268 0.37485352 0.62857664 0.99490696 0.92515326 1.0844145 0.6020561
-0.067737 0.67122585

layer_2.weight f4 [10, 10]
00000000: a736 95be 7059 d33c c2dc 84be cede 593e
00000010: f807 67be beb5 5f3e 5071 553d 23be 0dbe
00000020: a41a 093e e135 50be 51cd 2940 b2a1 48bf
00000030: e8e7 2f3e 6d30 df3e 35fe 3dbe cb40 fc3f
00000040: ef88 573f c602 08bf 8844 763e e588 22bf
00000050: 3937 9abd 8963 7a3f ded4 a6bf e84e 0bbf
00000060: 23e4 a1bf 4233 6b3f 3ce4 043f a2e5 c0bd
00000070: d2cb 45be a65f 2c40 3471 12bf befe d03f
00000080: ae79 883f 95d7 1b40 6c9d 573e d689 f4be
00000090: 95a6 2fbf 868f 0940 92a2 9c3d 8089 9dbf
000000a0: 2c03 b3bd e898 ef3d d47d 56be b534 7cbe
000000b0: 0022 c63b e075 7dbe b0b2 723d da65 a9bd
000000c0: 4fa0 86be bfb6 10be 1d29 15bf c9cb 0840
000000d0: fcbe c93f aa27 b7be fce1 0f3f a3e7 373e
000000e0: f329 8d3f ad22 98bf 9c3b 69be 763c 79bf
000000f0: c710 3a3f 121f 093f 864f 08c0 cfa4 c23f
00000100: 31d6 083f fab2 06c0 956f 3d40 f266 f13e
00000110: 7ed5 4fbe a2a8 fe3f 6edc afbe a327 9d3f
00000120: dd9a 853f b2ef ff3f ea9d 02c0 0290 d33e
00000130: 9cb7 b83f 9ee7 a83f 5d71 d73b eeb7 7cbf
00000140: 1752 ed3f 7cdd c23f 5c41 1a40 65e6 da3f
00000150: 10f2 85bf 15b2 de3f 0909 debf 6a29 02c0
00000160: 2512 853e fa62 1240 3a48 a63f eed0 ac3f
00000170: 5336 c0bf 074c 02c0 2f04 3940 467a d53f
00000180: 9eb8 efbe 23b7 0640 cdd3 943d 6a2f c73e
-0.2914326 0.025799483 -0.25949675 0.212764 -0.22561634 0.21846673 0.052110016 -0.13842063
0.13389069 -0.20333053 2.6531565 -0.7837173 0.17178309 0.43591633 -0.18554004 1.9707273
0.8419332 -0.5312923 0.2404958 -0.63490134 -0.07530064 0.9780813 -1.3033712 -0.54417276
-1.2647747 0.9187509 0.5191076 -0.09418799 -0.19316033 2.693338 -0.57203984 1.6327741
1.0662134 2.435033 0.21056145 -0.4776141 -0.6861356 2.149385 0.07648195 -1.2307587
-0.08740839 0.116990864 -0.20946437 -0.24629481 0.0060465336 -0.24751997 0.05925244 -0.0827138
-0.2629418 -0.14132212 -0.5826586 2.137438 1.5761409 -0.3577245 0.562042 0.17959456
1.1028427 -1.1885582 -0.22776645 -0.9735788 0.7268185 0.53563035 -2.1298537 1.5206546
0.5345183 -2.1046739 2.9599354 0.47148854 -0.20296285 1.9895213 -0.34347862 1.2277721
1.0437886 1.9995024 -2.0408883 0.41320807 1.4431033 1.3195684 0.0065747933 -0.98718154
1.8540677 1.5223842 2.4102392 1.7101561 -1.0464497 1.7398096 -1.7346507 -2.0337777
0.25990406 2.287291 1.2990792 1.350126 -1.5016578 -2.0358903 2.8908803 1.667794
-0.4682054 2.1049278 0.0726696 0.38903362

layer_2.bias f4 [10]
00000000: 8a38 a0be 8ea5 8f3f 1446 5e3e b629 293f
00000010: 705f 9cbe 6bf4 8b3f 9382 803f e929 4b3e
00000020: 74e6 b43e dca3 513f
-0.31293136 1.1222398 0.2170642 0.6607927 -0.30541563 1.0933965 1.0039848 0.19840206
0.35332072 0.81890655

layer_3.weight f4 [43, 10]
00000000: db16 973e 058d 073f 8f82 26bf eaa0 31bf
00000010: 9452 8d3d 2946 6d3e 01ac ae3e 8f4a 9cbf
00000020: 7872 f0be 2774 99bd cceb f43d c956 253f
00000030: 9fb1 12c0 b3dd 46be 4e7a 9dbe 65e7 283f
00000040: b28d 35c0 96e7 32be 3904 143f 2dbb 63bf
00000050: 0874 12bd 017a 8abd be0c 4d3f 54c3 c2bf
00000060: 46e7 9abe 2709 ea3e f33c 40bf f41d 3dbe
00000070: 6edd 853d 9ad5 11bf fac2 c1bd 29da 23bf
00000080: b64b 863e 42ae 1bbd 208c 66bc 3076 353f
00000090: 890e 1bbf 3c2a 433e fb3c efbf 2cdb 443e
000000a0: 1e05 5f3e 7ab5 2d3f ad76 39c0 75b3 773e
000000b0: 7869 99be 52c1 463e bcc6 5cbb fdc1 ce3e
000000c0: d549 afbc d210 2bc0 e180 943e 3136 fabf
000000d0: 3d9d 80bd 2636 ae3e d886 323d 922e 30be
000000e0: f4e9 823e e6a7 db3e 1359 19bf 1c06 50bf
000000f0: 6832 023d 162f b8bf f87c 463f d3fa d2be
00000100: ddbc 943e e7b1 eebe 9085 1e3f 3d47 fbbe
00000110: c1a1 603d 7cf5 84bf 105a 8bbe 8264 1ebf
00000120: 0c83 e8bf e0ef a83e 554b 803e ba7b 86bb
00000130: 6c07 e93d 4ded 0cc0 1f2a c0bf dbd5 553f
00000140: 9021 733d 12ef 1cc0 e4e4 8c3e 7dd4 2abe
00000150: e2ec 8cbe 6406 84be 052a 233f c057 a8be
00000160: be1f 1fc0 56ab cf3d 5df7 4dbe 3094 0ebe
00000170: 5293 68be 1940 353e ef01 993e bdfe d5be
00000180: db3e 86bf 8865 84bf 0f06 163f 14e5 cebe
00000190: 066c 8ebe 8bae 363e de37 ed3e 6430 c7bf
000001a0: 5475 1fbe 2b80 c4bf 348e 0b3f c3c6 30bf
000001b0: 0c04 18c0 3e12 d63e c556 9a3e d299 e1be
000001c0: 1406 283e b4a9 f8be 601d 51bc d13f 06bf
000001d0: a268 c8bf f524 56c0 31af fb3e cbe5 f63e
000001e0: fe4e 433e 6f11 03bf 8601 e4bf 3a3d a2be
000001f0: c02c e33d 1af3 923f db92 0ec0 9391 eebf
00000200: 78f3 ee3e 8da0 133e 2c3f 893d dd26 a5be
00000210: 740b 363f 0bdc b23d 8d5c 923e c3ef f7be
00000220: 8acb 9dbf 3b35 b6bd 7e03 403f a3b7 efbf
00000230: 1699 723e f39e ae3d 15bd 95be 8ccb bfbe
00000240: 88ae 34bd 1736 22c0 4221 253f cd25 f9bd
00000250: 58c6 81bd 5368 41bf d6dc 5ebe 7e79 9dbf
00000260: cc24 1dc0 c981 413f d0ed 78bd 1f57 e9bd
00000270: e949 02c0 a9e2 703e 6dff 9dbf 97c3 2d3f
00000280: 3d03 a13e a185 2ebe 5947 e5be e8f2 d6be
00000290: 1c28 49be 65cf 4dbe 84af 003e 796e 863e
000002a0: c9eb 9f3e fd33 bbbf 5e12 733e 868f 68bf
000002b0: 7eed c33c 31ed dd3d ca18 54be 37e9 2ec0
000002c0: bce0 fb3e 9b97 9ebe e274 95bf ffc6 893e
000002d0: f709 9f3e 87c2 2e3f 333c a93d e259 b8bf
000002e0: 70fb 2b3d 5775 72bd 155b 2bc0 e6a7 99bf
000002f0: 2531 253f 1c57 89be 8034 513c 650d f4bf
00000300: d35d 19c0 41c9 2d3f fafe 023e 0165 213f
00000310: 615d 0ac0 64fb ea3e 10a6 653e 9980 1ebf
00000320: fa5c 76be a2ab 803f 440f b3be 4ccf b7bf
00000330: 1b58 873e 3a5e dabf 9d8b 60bf e8f5 15c0
00000340: f15e 513e c82d 9d3e b1ad 83be f36a c3bd
00000350: 603d f5bf adcb 403f 005b 533b 3fae 30bf
00000360: 36e8 dcbf 7ae6 a73e 23eb 323e 68d5 02bf
00000370: 137e 8bbe f404 0ec0 8f36 be3d 5b30 12be
00000380: 7767 6bbe 0ec0 263e 2c20 9dbd 139d 85bf
00000390: c8f9 093c abaf 1b3e a075 c23c e210 ccbf
000003a0: 53b9 c2bf f2ea 1a3f fc3e 22be 5fb8 f43e
000003b0: 5429 f63e e436 363f 5296 08c0 1da4 b6bf
000003c0: 60a1 ae3c a376 f93d 498b 123f 8baa 18c0
000003d0: 3806 83be 4310 14bf 8e6a 26bd 3cab 36c0
000003e0: 1c93 8c3e a2fa b8bc f131 8c3e 3373 173f
000003f0: 0adb 3fc0 0364 20bf 13d0 32be 0f0f 003f
0.29509625 0.52949554 -0.65042967 -0.6938616 0.06900516 0.23171295 0.34115604 -1.2210253
-0.46962333 -0.074928574 0.11959037 0.6458555 -2.2920911 -0.19420509 -0.30757374 0.6597808
-2.8367734 -0.17471156 0.57818943 -0.8895748 -0.035755187 -0.06761552 0.8009757 -1.521586
-0.30254573 0.45710108 -0.75093 -0.18468457 0.06536375 -0.56966555 -0.09461017 -0.6400476
0.26229638 -0.038007982 -0.014071494 0.70883465 -0.60569054 0.1905908 -1.8690485 0.19224232
0.21779296 0.67855036 -2.8978684 0.24189551 -0.2996328 0.19409683 -0.003368779 0.40382376
-0.02139751 -2.6729016 0.29004577 -1.9547788 -0.06279991 0.34025687 0.04358563 -0.17205265
0.25569117 0.42901534 -0.5990154 -0.8125932 0.031786352 -1.438937 0.7753444 -0.4120699
0.2905034 -0.46620104 0.6192255 -0.49077788 0.05484176 -1.0387416 -0.2721715 -0.6187211
-1.8164992 0.3299551 0.25057474 -0.004104105 0.11378369 -2.2019837 -1.5012854 0.8352944
0.05935818 -2.4520917 0.2751838 -0.1668262 -0.27524477 -0.25786126 0.6373599 -0.32879448
-2.4863124 0.101401016 -0.20113893 -0.13923717 -0.22712448 0.17700233 0.29884288 -0.41795912
-1.0487932 -1.0343485 0.58602995 -0.40409148 -0.2781679 0.1784002 0.46331686 -1.5561643
-0.15572101 -1.5351614 0.5451386 -0.69053286 -2.375247 0.41810793 0.30144325 -0.44062668
0.16408569 -0.48566973 -0.012763351 -0.52441126 -1.5656931 -3.3460057 0.49157098 0.48222193
0.19073102 -0.51198477 -1.7812965 -0.31687337 0.1109252 1.1480439 -2.2277133 -1.8638176
0.46670127 0.14416714 0.06701502 -0.32256213 0.71111226 0.08733376 0.28586236 -0.4842511
-1.232774 -0.08896872 0.7500533 -1.8727916 0.2369121 0.08526411 -0.2924582 -0.3745998
-0.04411176 -2.5345514 0.6450387 -0.12165413 -0.06336659 -0.7554981 -0.2176393 -1.2302701
-2.455371 0.7558866 -0.06077367 -0.1139357 -2.035761 0.23523964 -1.2343575 0.6787657
0.31447783 -0.17043163 -0.44780996 -0.41982198 -0.19644207 -0.20098646 0.12566954 0.2625616
0.31234577 -1.462524 0.23737475 -0.90844 0.023916956 0.10836256 -0.20712581 -2.7329843
0.49194896 -0.3097504 -1.1676295 0.26909634 0.3106229 0.68265575 0.08263435 -1.440243
0.041987836 -0.059193935 -2.6774342 -1.2004364 0.64528114 -0.26824272 0.012768865 -1.9066588
-2.3963516 0.67885214 0.12792578 0.63044745 -2.1619494 0.4589492 0.22426629 -0.61914974
-0.24058905 1.0052378 -0.34972584 -1.4360137 0.26434407 -1.7060006 -0.8771303 -2.343134
0.20446374 0.3069899 -0.25718454 -0.09541883 -1.9159355 0.75310785 0.0032250285 -0.6901588
-1.7258365 0.32793027 0.1747251 -0.5110688 -0.27244624 -2.2190523 0.0928775 -0.14276259
-0.22988687 0.162842 -0.07672152 -1.043856 0.008421369 0.15203731 0.023737729 -1.5942652
-1.5212806 0.6051475 -0.15844339 0.47796914 0.48078406 0.71177506 -2.1341748 -1.4268833
0.021317184 0.12180831 0.5724378 -2.385409 -0.25590682 -0.57837313 -0.040628962 -2.8542013
0.27455986 -0.022580449 0.27381852 0.59160155 -2.997744 -0.62652606 -0.17462187 0.5002298

layer_3.bias f4 [43]
00000000: ead2 193f dd3b 59be 6003 01bf d0d3 4fbe
00000010: 250d 4abd af23 4cbe e2d0 94be bfb8 183e
00000020: ef75 a9be 21ec 833c bd57 4a3d 7321 53be
00000030: 7347 99be 3681 6abe f090 d2bd 65ef 9e3e
00000040: 1f66 a8be f644 8b3e 68f9 d33e fc4b ca3d
00000050: ccdd 003e f165 9bbe e279 4d3e df45 1c3e
00000060: cec6 73be fbd6 f03e c6fa 843d 5968 163e
00000070: 90d3 62ba 3c86 5a3d b888 0ebd 9c72 42be
00000080: 4913 9ebc 9b3a 433e d5fc 7e3e 8966 2a3d
00000090: 453b e1bd 1c46 693e 6b9e 3ebe bbe9 ff3c
000000a0: ce1c c5bc 5ae9 3cbe 2c91 28be
0.60087454 -0.21214242 -0.50395775 -0.20295644 -0.04932894 -0.19935487 -0.29065615 0.14914225
-0.3309779 0.016103806 0.04940008 -0.20618229 -0.29937324 -0.22900853 -0.10281551 0.3104202
-0.32890412 0.2720105 0.4140122 0.09877774 0.12584609 -0.30351213 0.20066026 0.15261029
-0.23806307 0.47039017 0.06493144 0.14688243 -0.0008652741 0.053350672 -0.034798354 -0.18989033
-0.019296305 0.19065325 0.24901135 0.04160169 -0.10997633 0.22780651 -0.18615119 0.031239381
-0.024061587 -0.18448392 -0.16461629
